{
  "modelTopology": {
    "class_name": "Sequential",
    "config": {
      "name": "sequential_6",
      "layers": [
        {
          "class_name": "Dense",
          "config": {
            "units": 128,
            "activation": "sigmoid",
            "use_bias": true,
            "kernel_initializer": {
              "class_name": "VarianceScaling",
              "config": {
                "scale": 1,
                "mode": "fan_avg",
                "distribution": "normal",
                "seed": null
              }
            },
            "bias_initializer": {
              "class_name": "Zeros",
              "config": {}
            },
            "kernel_regularizer": null,
            "bias_regularizer": null,
            "activity_regularizer": null,
            "kernel_constraint": null,
            "bias_constraint": null,
            "name": "dense_Dense11",
            "trainable": true,
            "batch_input_shape": [
              null,
              10
            ],
            "dtype": "float32"
          }
        },
        {
          "class_name": "Dense",
          "config": {
            "units": 9,
            "activation": "sigmoid",
            "use_bias": true,
            "kernel_initializer": {
              "class_name": "VarianceScaling",
              "config": {
                "scale": 1,
                "mode": "fan_avg",
                "distribution": "normal",
                "seed": null
              }
            },
            "bias_initializer": {
              "class_name": "Zeros",
              "config": {}
            },
            "kernel_regularizer": null,
            "bias_regularizer": null,
            "activity_regularizer": null,
            "kernel_constraint": null,
            "bias_constraint": null,
            "name": "dense_Dense12",
            "trainable": true
          }
        }
      ]
    },
    "keras_version": "tfjs-layers 2.0.0",
    "backend": "tensor_flow.js"
  },
  "format": "layers-model",
  "generatedBy": "TensorFlow.js tfjs-layers v2.0.0",
  "convertedBy": null,
  "weightsManifest": [
    {
      "paths": [
        "https://slavikse.github.io/syntet/models/syntet_TicTacToe_model_O.weights.bin"
      ],
      "weights": [
        {
          "name": "dense_Dense11/kernel",
          "shape": [
            10,
            128
          ],
          "dtype": "float32"
        },
        {
          "name": "dense_Dense11/bias",
          "shape": [
            128
          ],
          "dtype": "float32"
        },
        {
          "name": "dense_Dense12/kernel",
          "shape": [
            128,
            9
          ],
          "dtype": "float32"
        },
        {
          "name": "dense_Dense12/bias",
          "shape": [
            9
          ],
          "dtype": "float32"
        }
      ]
    }
  ]
}
